runs/base/weights/model_0.pth (torch, 10432 bytes, 8 tensors)

weight f4 [15, 33]
000000 7a 39 98 3d ae 44 0c 3e 05 3f 06 3e 6c 27 e6 bd
       0.07432838 0.13698074 0.13109978 -0.11237988
000010 eb ce 27 bd de 9b 01 be 82 06 94 3d c1 7e d4 3d
       -0.040968817 -0.12657115 0.07227804 0.10375739
000020 b7 9d 39 bd a9 53 26 be ef 34 8a 3d c1 4f 11 be
       -0.045316424 -0.16242851 0.067483775 -0.1419058
000030 90 ec 23 be ab fe 1d 3e 73 53 8f bd fa 4b f5 3d
       -0.1600821 0.1542918 -0.069983386 0.11977382
000040 eb 34 fc 3d e4 ec 9d 3d 05 fa c1 3d 1f 51 e3 3c
       0.12314781 0.07711199 0.094715156 0.027748642
000050 9a d3 d1 bc 90 56 ce 3d b6 a6 1d 3e c9 25 04 bd
       -0.025613595 0.10075104 0.15395626 -0.032262597
000060 7e 1c 6a bc ca 5d ab bc ed 82 58 3d ba 7c 45 bc
       -0.01428902 -0.020918746 0.052859236 -0.012053663
000070 d5 83 9e bd 13 e2 e0 bd 77 aa 90 3d 85 13 dc 3d
       -0.07739989 -0.1098062 0.070637636 0.107459106
000080 9b c1 1e 3d 8b 43 4d bd cb 5d 63 3c 52 aa fa 3d
       0.038758855 -0.050113242 0.013877342 0.12239517
000090 e0 aa a5 3d d4 40 bf 3d bc ef 3a 3e b8 35 f9 3c
       0.080892324 0.09338537 0.18255514 0.030421123
0000a0 83 0d a1 bd 71 3f db bd c2 3d 68 bd a5 13 0b be
       -0.07863905 -0.1070546 -0.05669952 -0.13581713
0000b0 2f 3f a8 bd 52 6f 49 3e 4a ba 22 3e d0 3e 12 be
       -0.08215176 0.19671372 0.15891376 -0.14281774
0000c0 2a be 1a bd 82 cd 84 bd 93 14 0f be 04 64 e2 bd
       -0.03777901 -0.0648451 -0.13972692 -0.11054233
0000d0 4e 41 1b 3e 87 35 09 3e e6 a8 15 be 68 5b 6a 3d
       0.1516163 0.13399325 -0.14615211 0.057216078
0000e0 5e 46 ca bc 82 2c c4 3d 07 b8 3a 3d 12 27 1d bc
       -0.024691757 0.09578802 0.04558566 -0.009591835
0000f0 31 c6 17 be 2e 4e e9 bd 2a a3 37 3e a0 91 89 3d
       -0.14821698 -0.11391865 0.17933336 0.06717229
000100 7b 3c 11 bd fd de 13 3e 3c 5c d2 3d f8 9c 05 be
       -0.03545807 0.14440532 0.102714986 -0.1304816
000110 18 31 14 be 3c 21 9e 3c a8 ea 05 be a2 c9 8f bd
       -0.14471853 0.019302957 -0.13077796 -0.0702088
000120 c6 7b d1 3d 58 67 49 3d 30 17 cc bc e7 09 92 bb
       0.10228686 0.049170822 -0.0249134 -0.004456747
000130 5d 3f b0 3d df 21 16 3e a6 6c 75 bb cf 31 17 3d
       0.086058356 0.14661358 -0.0037448793 0.036912736
000140 1f 3c 3f be 6f 81 fb bd 03 fe f8 3d e5 4b 2a 3d
       -0.18675278 -0.12280547 0.12157824 0.041576285
000150 a4 0c 52 3d 62 b9 15 3d 98 06 ee bd 7d 5b 37 bd
       0.051281586 0.036553748 -0.116223514 -0.044764984
000160 74 56 0a be ed 36 f4 3d ec 72 11 bd 13 89 be 3d
       -0.13509542 0.11924539 -0.03550999 0.093034886
000170 11 0b f1 3c 6d bd ba bd 02 bb 4b bd a1 81 2f 3d
       0.029424222 -0.09118161 -0.04973889 0.042848233
000180 d3 f8 35 be 79 23 cf 3d 47 ba 0b 3e f6 f7 65 bc
       -0.177707 0.10114188 0.13645278 -0.014036169
000190 a3 ab 34 be 68 21 7f 3d 06 b8 0e 3e e8 9e bd 3c
       -0.17643599 0.062287718 0.13937387 0.023147061
0001a0 53 33 c8 bc cf 5c 7a 3d 4e 7e eb bc 58 d2 14 bc
       -0.024438536 0.061123665 -0.02874675 -0.009083353
0001b0 50 6f cd bd c5 e7 49 3d 4c 14 3a be 57 a5 2e 3c
       -0.10030997 0.0492933 -0.18171805 0.010659537
0001c0 3e 2c b2 bc 5c be af bd 8a e3 33 be ca 5a 94 bc
       -0.021749612 -0.0858123 -0.17567268 -0.018109698
0001d0 71 ab 16 3e 1c 27 c3 bd 4d aa 11 3e 07 71 d1 bd
       0.14713837 -0.09528944 0.14225121 -0.102266364
0001e0 29 fb c9 3c 78 d9 24 be b8 f5 1e be b7 cf 2e 3d
       0.024655895 -0.16098583 -0.15523422 0.04267856
0001f0 2d a4 3d be bc 52 85 3d 09 74 2b be 8b 4f 16 3e
       -0.1851966 0.06509921 -0.16743483 0.1467878
000200 7a 05 6a bd 91 45 f3 bd 23 5f 29 be e9 d0 a5 bd
       -0.05713413 -0.11878503 -0.16540198 -0.08096487
000210 eb c2 f5 3d a8 36 10 be 5e 5f e5 3c 97 75 ea 3d
       0.12000068 -0.1408335 0.027999576 0.1144821
000220 d6 d2 07 be 4d 1d cb 3d d5 f9 12 3d 3c c0 03 bd
       -0.13264021 0.09917698 0.03588279 -0.03216575
000230 b5 2f 9b 3d 45 e1 36 3e 58 21 1d 3e 6b c6 2e 3e
       0.07577459 0.17859371 0.15344751 0.17067878
000240 72 45 3c 3e 8f 31 61 3c 70 c6 74 bd 66 31 5d bd
       0.18385866 0.013744726 -0.059759557 -0.05400219
000250 92 e1 a8 3d 91 91 18 be 63 8a 20 3e c1 45 8d 3d
       0.08246149 -0.14899279 0.1567779 0.0689807
000260 56 8d b5 bd 37 09 97 bd 1e ab 08 3e 5b e9 19 3e
       -0.08864848 -0.073748045 0.13346526 0.15030424
000270 0c b5 b0 bd e1 da 86 bc 00 b3 d7 bd 7a bd 2f bd
       -0.08628282 -0.016461791 -0.105321884 -0.04290531
000280 8d ac 28 bc 4c 6a 1b 3e 3d 7e 40 3e 47 b0 0b 3e
       -0.010295046 0.15177268 0.18798156 0.13641463
000290 9e 5b cc 3d e1 19 ae bd 38 36 89 3d de cf fb 3d
       0.09978412 -0.0850103 0.066997945 0.12295507
0002a0 06 48 30 3d 59 10 17 3e 1c 80 9c 3b 5f d9 12 be
       0.043037437 0.1475233 0.004776014 -0.14340733
0002b0 54 77 86 3d 7d 4f a5 3d ce d2 0e 3e 6a 88 2d 3e
       0.06565729 0.08071802 0.13947603 0.16946569
0002c0 82 1f ac 3b 23 46 8f bd a1 7f da bd a3 3d 01 be
       0.0052527795 -0.069957994 -0.106688745 -0.12621169
0002d0 11 e3 aa 3d e6 7f e0 bd 17 f7 02 be 9d 13 2a 3e
       0.08344091 -0.10961895 -0.1278957 0.16609044
0002e0 ed 77 f7 bd ff 59 7c bd bf 75 1a 3d 9d 64 8e 3c
       -0.12083421 -0.061609264 0.037709948 0.01738196
0002f0 04 d4 25 be b5 91 2a 3e 9e be 1a bd 36 1d 1c 3e
       -0.16194159 0.16657145 -0.037779443 0.15245518
000300 a5 e7 20 be d1 f5 b8 3d 40 df d6 ba cf 8d 93 bd
       -0.15713365 0.09031261 -0.0016393438 -0.07204782
000310 bb 4e 15 be fb d8 05 3d 04 ac 94 3c 05 f4 04 be
       -0.14580815 0.03267763 0.01814843 -0.12983711
000320 ce a3 36 3e 1b 4a 05 3e 99 a4 a7 bd 23 2f c4 3c
       0.17835924 0.1301655 -0.081856914 0.023948258
000330 f8 de 10 3e e8 ba b1 3d 18 4f 89 3d 5b f9 9c bd
       0.14147556 0.08678228 0.06704539 -0.07664748
000340 98 66 c2 bb fc 1b 7f 3d ea 07 45 3e d3 86 f7 bd
       -0.0059326403 0.062282547 0.192413 -0.120862626
000350 44 97 15 3d 93 bc 48 3d 2d 47 fc 3d 96 66 8a bd
       0.03652121 0.049007963 0.12318263 -0.06757848
000360 65 1f cc bd 84 8d 1b 3e 34 b2 c4 bc dc 3c 15 be
       -0.099669255 0.15190703 -0.024010755 -0.14573997
000370 b1 0a 9f bd 42 e2 e6 b8 f9 93 fc bb 71 3b 52 3d
       -0.07765711 -0.000110093984 -0.0077080694 0.05132622
000380 7f 8c 65 3d 62 fd 4a 3d c0 d0 f3 3d 5a e6 cf 3d
       0.05604219 0.04955805 0.1190505 0.10151358
000390 45 d7 be 3d d3 e0 1a 3e 94 d1 c4 bd 0f f5 1f bd
       0.09318403 0.15124826 -0.09610286 -0.039052065
0003a0 9b 7e 08 3e 9f eb 31 3d ed 51 c9 bc b9 09 06 3d
       0.13329546 0.043437596 -0.024575198 0.032724116
0003b0 55 be 9e 3d 9f c4 ac bd d7 f8 a1 bd 8f 8a 68 3d
       0.07751147 -0.0843594 -0.079087906 0.056772765
0003c0 57 96 1b 3e 30 07 d9 3c f7 13 70 3d c9 32 2e be
       0.15194069 0.026492685 0.05861279 -0.1701156
0003d0 a2 9e 23 3e e9 bc 20 3b 09 70 6f bc 1f 80 08 be
       0.15978482 0.0024526662 -0.014614114 -0.13330124
0003e0 31 72 bb bd f9 93 8d 3d b6 6e ab bd d4 ad 91 3d
       -0.0915264 0.06912989 -0.08370726 0.07113233
0003f0 e7 b7 61 bd 52 22 2b 3d 8a e6 99 bd 54 37 10 3e
       -0.055107024 0.041780777 -0.07514675 0.14083606

bias f4 [15]
000000 9d ba af 3d d6 36 19 3e 69 85 78 3d c5 79 88 bd
       0.085805155 0.14962325 0.060674105 -0.06663851
000010 62 f8 0e 3e a6 d5 30 3e 93 21 05 3d ed 90 47 3d
       0.13961938 0.17269 0.032502722 0.048722196
000020 70 c3 cc bc da e0 2d bb 9b f2 f4 3c 85 1e d3 bd
       -0.024995536 -0.0026531727 0.02990084 -0.103085555
000030 5f b6 72 3d 5b 61 b8 3d 11 4a 4f 3d
       0.059255954 0.09002944 0.050607745

weight f4 [15]
000000 94 3f 82 3f 38 d1 7e 3f d6 03 7c 3f e1 90 7d 3f
       1.0175653 0.9953799 0.98443353 0.9904919
000010 d5 55 81 3f 50 ec 7f 3f bf a4 82 3f 50 ec 7f 3f
       1.0104319 0.9996996 1.0206527 0.9996996
000020 7d c3 7e 3f 80 5a 83 3f 30 56 83 3f 28 2c 82 3f
       0.9951704 1.0261993 1.0260677 1.0169725
000030 b3 55 81 3f ec 9a 7e 3f 0f 6c 83 3f
       1.0104278 0.9945514 1.0267352

bias f4 [15]
000000 14 c2 83 3c 90 a7 8e bb 4b 30 9a bc 95 0f 29 bc
       0.016083755 -0.004353471 -0.018821856 -0.010318656
000010 a5 71 ab 3c 00 00 00 00 2b 34 bc 3c 00 00 00 00
       0.020928213 0.0 0.022974094 0.0
000020 d1 d9 94 bb 64 89 da 3c be 66 cf 3c 8e 1c 96 3c
       -0.0045425673 0.026676841 0.025317546 0.018324163
000030 68 b3 36 3c 1c 9f b5 bb 38 c7 d9 3c
       0.011151172 -0.005542649 0.026584253

weight f4 [17, 39]
000000 bd 5d 8d bd 88 19 e9 3c 0e 3f ae bd 6b 1a a3 bd
       -0.06902645 0.028454557 -0.085081205 -0.07964023
000010 5e 09 b8 bc f1 05 b3 bd 8f 09 06 be 62 81 6c bd
       -0.022465404 -0.087413676 -0.13089584 -0.057740577
000020 6d 73 08 3e 7e 82 50 3d 4e dd 52 bd d0 8c 04 be
       0.13325281 0.050905697 -0.051480584 -0.1294434
000030 7d 48 a7 bd ba f2 0f be d6 57 95 3d 0d 31 3f 3d
       -0.08168123 -0.14057437 0.07292144 0.046677638
000040 5e 26 26 3c 7c c6 99 bc 7b a8 af 3c b6 a8 33 3e
       0.010140983 -0.018771403 0.021442642 0.17544827
000050 18 90 62 bd d7 08 1a 3e ed 67 34 3e 7d 63 28 bd
       -0.0553132 0.15042435 0.1761777 -0.041110504
000060 f4 60 b7 ba 7a 98 1b 3e 13 5c 02 3c 9f 81 b0 bd
       -0.0013990686 0.15194884 0.0079565225 -0.08618473
000070 ce 3d ac 3b 0d a6 68 3d 79 6f 00 3e b7 4f f3 bd
       0.005256391 0.056798983 0.12542523 -0.11880439
000080 8e 14 be bd b0 34 9b 3d b1 f6 b5 3c 0f fb e7 bd
       -0.09281264 0.07578409 0.022212358 -0.113271825
000090 09 93 e9 bd 0b 35 10 bd a7 34 d4 bd 7c 54 8e bd
       -0.11404998 -0.035206836 -0.10361605 -0.06949708
0000a0 01 46 4b bd 14 07 ee 3d 01 54 06 3e 60 1e bd bd
       -0.049627308 0.11622444 0.13117982 -0.09234309
0000b0 00 6e df bb 90 b6 96 bd b7 77 16 3d ea d0 ab bd
       -0.006818533 -0.0735904 0.036735263 -0.083894566
0000c0 46 ba 0b be 8e 22 0b be eb a0 f5 bd 52 8e 45 3d
       -0.13645276 -0.135874 -0.11993583 0.04823143
0000d0 22 67 0f 3d 09 0f e8 bd 1c 26 80 bd c8 77 08 3e
       0.035010464 -0.11330993 -0.06257269 0.13326943
0000e0 9e 69 0a 3e 59 c0 1d be 02 4b 1b bd dc 5d 03 bd
       0.13516852 -0.15405406 -0.03791333 -0.032071933
0000f0 58 32 f5 3d 6b 23 b6 3d 48 38 00 3e 55 45 ad b9
       0.11972493 0.08893474 0.1252147 -0.00033048788
000100 b9 40 f2 3d 54 3c 09 3e f6 7a 9f 3c b3 a2 c8 3d
       0.11828751 0.1340192 0.019467812 0.097966574
000110 2e aa d6 3d b3 88 87 3d a6 65 1e be 85 97 31 be
       0.10481678 0.0661787 -0.15468463 -0.17342956
000120 bb ff 44 bb 47 a4 2f 3d 99 cd 19 bd 2c ae cd 3d
       -0.0030059654 0.042881276 -0.03754959 0.10042986
000130 49 e5 f3 bd b6 04 63 bd 31 75 9d bd ee e5 d8 3b
       -0.11908967 -0.055424415 -0.07688368 0.0066192066
000140 c3 b2 8a 3d 78 59 0e 3e 9a 59 3b bd 4d c8 6f 3d
       0.06772377 0.13901317 -0.045739748 0.05854063
000150 5f 9c e8 bd c3 96 17 be 4c 74 ff 3d 7a 14 c1 3d
       -0.113579504 -0.14803605 0.12473354 0.09427734
000160 d8 e1 32 be 30 6b b1 3c 09 80 d1 bd 3b e2 db 3c
       -0.17468965 0.021657556 -0.10229499 0.026841274
000170 3d d5 0a be 22 9c a2 3a d6 43 91 3d 6e 9c 0a be
       -0.13557906 0.001240615 0.07093017 -0.13536236
000180 b9 05 07 3d 11 7d 94 3b 77 0a 86 bd e8 eb c1 bd
       0.032964442 0.0045315106 -0.06544965 -0.09468824
000190 8f a9 ac bd 02 b1 f5 bd 8b ae c3 bd 99 28 24 3e
       -0.08430778 -0.11996652 -0.09554776 0.16031112
0001a0 98 b5 00 bd 92 dc b6 3d 1c 6b af bd 05 92 17 bd
       -0.03142318 0.08928789 -0.08565351 -0.03700449
0001b0 f7 2c 1e be 0e e5 23 3d 3f 35 4b ba 1d f0 de 3c
       -0.1544684 0.040013365 -0.000775177 0.027214104
0001c0 59 2a 14 bd bc 29 92 ba 3b c1 ee 3d 13 77 f5 bd
       -0.0361732 -0.0011151354 0.116579495 -0.11985602
0001d0 8e bb 68 bd 24 c9 87 3d ac 8f 8f bd 61 42 ae bd
       -0.05681949 0.066301614 -0.07009825 -0.085087545
0001e0 9f 1f 04 3d 86 f6 db 3d ab 13 fb bd b2 27 f9 bb
       0.03225672 0.1074038 -0.12259611 -0.007603609
0001f0 12 3a cc 3c 87 6d b5 3d b0 e8 da bd e9 b5 e0 bd
       0.024930034 0.08858781 -0.10688913 -0.109721966
000200 d7 8f 8f 3c 4e 0e 35 bd 8e ec 7d bd 0d b7 9d 3d
       0.017524643 -0.044203095 -0.061993174 0.0770093
000210 a0 59 22 bc 16 b3 f0 3d dd 27 60 3d 54 04 c6 3d
       -0.009909064 0.11752908 0.054725517 0.09668794
000220 cf 46 e9 3d 75 47 88 bc 20 ed 37 be 04 05 24 be
       0.11390459 -0.016635636 -0.1796155 -0.16017538
000230 d7 3c e4 3d f7 7a 9c 3d f1 6a ec bd 68 b2 35 bd
       0.11144417 0.07640641 -0.11543835 -0.044359595
000240 82 75 8b 3d 39 e0 10 be 0c f5 d8 bd 5d af c5 3d
       0.06809522 -0.14148034 -0.10593614 0.096525885
000250 56 61 ff 3d 8c 32 d4 3d 06 5c 6e bd d7 a4 cc bd
       0.12469737 0.103612036 -0.05819323 -0.09992378
000260 7f fa 33 3d 9e 64 ff bd ed 42 09 3e fd be 10 bd
       0.043940064 -0.12470363 0.13404436 -0.03533839
000270 41 cc d9 bd b6 1b 0e bd 60 84 76 bd 79 ba 2a be
       -0.106346615 -0.034694396 -0.060184836 -0.16672696
000280 fd 44 7c bd 94 03 b0 bd bb f4 46 3d cc d3 cb bd
       -0.06158923 -0.085944325 0.048573237 -0.099525064
000290 5c 03 1d 3e ce 39 9c 3d 34 d2 00 be 40 e4 0a be
       0.15333313 0.07628213 -0.12580186 -0.13563633
0002a0 61 08 f0 bc 8e dd 8a bd 48 ed c9 3d ec 52 de 3d
       -0.02930087 -0.067805395 0.09859711 0.1085566
0002b0 5a 2d ff bc b6 3a 84 bd c0 8a 9f bd c9 29 18 be
       -0.031149555 -0.06456511 -0.07790136 -0.1485969
0002c0 f1 83 0c 3e c3 8f 7a bd 4f 61 03 be 2d b9 ed bd
       0.13722207 -0.061172258 -0.12830089 -0.11607585
0002d0 99 db d5 3d 5b d5 0a 3e 62 f9 4f 3d c1 ed 1a be
       0.104422756 0.13557951 0.05077494 -0.15129758
0002e0 4b 6e 7d bd d7 fe 91 b9 a0 83 f5 3d 98 f0 ac bd
       -0.06187276 -0.00027846426 0.11987996 -0.08444327
0002f0 d1 5c 2e be e5 1d e8 bc 45 c6 82 bd e3 c3 87 3d
       -0.17027594 -0.028334567 -0.06385473 0.06629159
000300 03 f7 c2 3d 82 1e 06 be 3b 4e 2b be ce 22 2f bd
       0.0951977 -0.13097575 -0.16729061 -0.0427578
000310 08 f5 f9 bc a9 4c fc 3d 34 14 1e 3d 16 c9 30 3c
       -0.030512348 0.12319309 0.038593486 0.01079013
000320 ed 27 de 3d b4 4c ad bc aa de ac bb d8 9c 04 3e
       0.10847459 -0.021154739 -0.005275567 0.12950456
000330 35 31 07 3e df 67 e2 3d 60 3d 74 3d 81 15 b7 bc
       0.13202365 0.11054968 0.059628844 -0.022349121
000340 c7 57 03 3e 30 a4 89 3d 82 ee 0b 3e a4 6e 5f bd
       0.12826453 0.067207694 0.13665202 -0.054548874
000350 4c 6d ea bb 5f f7 0e 3e 33 a4 08 bc 30 bb 44 bd
       -0.0071541425 0.13961552 -0.008339929 -0.04803008
000360 a1 e4 c9 3d b2 33 6c 3d 4b 2b e3 3c 9b de 0a bd
       0.09858061 0.057666488 0.027730605 -0.0339037
000370 2b 90 25 be 31 e7 93 bd a7 e9 c8 3c 3e eb b8 3d
       -0.16168277 -0.07221831 0.024525477 0.09029244
000380 45 6b 37 3e 64 1c 03 3e 96 41 be bd 4e e2 2a 3e
       0.17912014 0.12803799 -0.09289853 0.16687891
000390 93 ab 04 bd c9 06 35 3d ea 8b 9c bd e1 7e 76 bd
       -0.03239019 0.044195924 -0.07643874 -0.060179595
0003a0 e8 dd 23 3e 90 78 3f bd c7 0e ba bd 8e 61 93 3c
       0.1600262 -0.046745837 -0.0908485 0.017990854
0003b0 78 2e 3a 3d 55 28 09 3e c7 93 35 be b7 72 0f 3e
       0.045454472 0.13394292 -0.17732154 0.14008604
0003c0 25 55 1f bd 8b d8 38 bd 8e d5 22 bd 34 3e 5a bc
       -0.03889956 -0.045128386 -0.039754443 -0.013320494
0003d0 c7 d1 9d bd da 29 d1 3d eb 57 da 3d a7 66 1f be
       -0.077060275 0.10213061 0.106613 -0.15566503
0003e0 70 28 bb 3c 81 6e 88 3d d0 5b d1 3d 3e fe fd bd
       0.02284643 0.06661702 0.1022259 -0.124020085
0003f0 70 6c c0 bd e5 f6 8a bd cc 9f 2d be 09 55 28 bd
       -0.09395683 -0.06785373 -0.16955489 -0.04109672

bias f4 [17]
000000 01 c8 c8 3c 8b 82 d7 3d 64 d4 c3 3a 6b 07 4c 3d
       0.024509432 0.10522946 0.0014940617 0.04981176
000010 7b d2 06 3c 89 63 db 3b 3a d9 b3 3d ad 0c eb 3d
       0.008228893 0.006695215 0.08781667 0.11477027
000020 22 e5 8a 3d 99 c8 74 3d cc e5 e4 3d f3 da ea bd
       0.06781985 0.059761617 0.11176643 -0.114675425
000030 7f 27 11 3e 96 8c 33 be d0 3e 27 be 8a 56 05 3e
       0.14175223 -0.17534098 -0.16332555 0.13021293
000040 be 5f db bd
       -0.10711621

weight f4 [17]
000000 e7 92 82 3f 4e e3 79 3f 50 ec 7f 3f 50 ec 7f 3f
       1.0201081 0.97612464 0.9996996 0.9996996
000010 93 f6 80 3f 45 b0 83 3f 50 ec 7f 3f de 9b 80 3f
       1.0075248 1.0288168 0.9996996 1.0047567
000020 ba ba 83 3f 55 87 81 3f c9 b1 83 3f 50 ec 7f 3f
       1.029136 1.0119425 1.0288631 0.9996996
000030 08 98 82 3f 50 ec 7f 3f 50 ec 7f 3f f0 2e 82 3f
       1.0202646 0.9996996 0.9996996 1.0170574
000040 50 ec 7f 3f
       0.9996996

bias f4 [17]
000000 e2 14 a3 3c 62 59 cd bc 00 00 00 00 00 00 00 00
       0.019907419 -0.025067035 0.0 0.0
000010 01 76 09 3c ab 11 dd 3c 00 00 00 00 5a 0a fd 3b
       0.008389951 0.026985964 0.0 0.0077221813
000020 1b e9 de 3c d2 d6 43 3c e8 0d de 3c 00 00 00 00
       0.027210763 0.011953073 0.02710624 0.0
000030 b7 bd a2 3c 00 00 00 00 00 00 00 00 dc 95 89 3c
       0.019865854 0.0 0.0 0.016795091
000040 00 00 00 00
       0.0
